…
rature.</p> <pre><code>model.compile(\n    # Compile model using DP loss\n    loss=losses.DP_TauCategoricalCrossentropy(18.0),\n    # this method is compatible with any first order optimizer\n    optimizer=tf.keras.optimizers.SGD(learning_rate=2e-4, momentum=0.9),\n    metrics=[\"accuracy\"],\n)\nmodel.summary()\n</code></pre> <pre>\n<code>Model: \"dp__sequential\"\n_________________________________________________________________\n Layer (type)                Output Shape              Param #   \n=================================================================\n dp__bounded_input (DP_Bound  (None, 28, 28, 1)        0         \n edInput)                                                        \n\n dp__quick_spectral_conv2d (  (None, 26, 26, 32)       288       \n DP_QuickSpectralConv2D)                                         \n\n dp__group_sort (DP_GroupSor  (None, 26, 26, 32)       0         \n t)                                                              \n\n dp__scaled_l2_norm_pooling2  (None, 13, 13, 32)       0         \n d (DP_ScaledL2NormPooling2D                                     \n )                                                               \n\n dp__quick_spectral_conv2d_1  (None, 11, 11, 64)       18432     \n  (DP_QuickSpectralConv2D)                                       \n\n dp__group_sort_1 (DP_GroupS  (None, 11, 11, 64)       0         \n ort)                                                            \n\n dp__scaled_l2_norm_pooling2  (None, 5, 5, 64)         0         \n d_1 (DP_ScaledL2NormPooling                                     \n 2D)                                                             \n\n dp__flatten (DP_Flatten)    (None, 1600)              0         \n\n dp__quick_spectral_dense (D  (None, 512)              819200    \n P_QuickSpectralDense)                                           \n\n dp__group_sort_2 (DP_GroupS  (None, 512)              0         \n ort)                                                            \n\n dp__quick_spectral_dense_1   (None, 10)               5120      \n (DP_QuickSpectralDense)                                         \n\n=================================================================\nTotal params: 843,040\nTrainable params: 843,040\nNon-trainable params: 0\n_________________________________________________________________\n</code>\n</pre> <p>Note that the model contains \\(843\\)K parameters. Without gradient clipping these architectur
…
